gru_attention_model.pth (torch, 195752 bytes, 16 tensors)

gru.weight_ih_l0 f4 [192, 7]
0.5404352 0.12718259 -0.09137455 -0.0022552162 -0.0026042461 -0.08972961 0.008472398 -0.40311927
-0.25275367 -0.3701733 -0.100140765 0.112228125 0.024917781 -0.10812922 0.6233671 0.15853874
-0.13754219 0.04753913 -0.010370478 -0.093802735 -0.10647757 -0.14606431 0.32666233 -0.31556812
0.008037433 -0.01596491 0.047237992 -0.07442038 -0.19918288 0.024787962 0.5226852 0.076487586
0.044228718 -0.0118754655 0.019961715 0.49588603 0.16855024 0.06456175 -0.021054208 0.0018006116
0.08387807 -0.09175317 -0.50577366 -0.33249235 -0.46112952 -0.11029783 -0.051454514 0.094466865
-0.05111003 -0.070240915 -0.17525269 0.59322137 0.09845185 -0.09370367 0.04720746 -0.11788775
-0.09643946 0.19871905 0.027878804 0.039898515 -0.09524037 -0.090546414 0.048625886 0.5831201
-0.05669822 0.12140953 -0.023097143 -0.015321478 0.12278424 -0.02617976 -0.2031874 -0.41921896
0.1926819 -0.00023344159 0.064608425 0.0013484657 -0.07300036 0.10952202 0.17530017 -0.17837402
0.109105125 0.11530168 0.12166299 0.10220088 0.55954534 0.08483419 -0.00924825 -0.12407373
0.07509583 0.08915946 -0.12235983 -0.090880945 -0.010849857 0.26271433 0.012491658 -0.026499629
0.05158131 0.030164227 0.22397323 0.181751 -0.107510574 0.103722006 0.006343439 -0.00038716197
-0.033548057 0.7117379 0.001361759 0.056688033 -0.08953941 -0.057406873 0.028730556 -0.10592529
0.45360914 0.29136094 0.07777941 -0.090989605 0.08656724 0.056322217 -0.0063779503 -0.097556874
0.27357793 -0.08312024 -0.116934836 -0.12235917 0.10897569 0.115071625 0.51632446 0.035881657
-0.023105565 -0.117375284 0.12136096 -0.04638362 -0.019844055 0.067668565 0.45302942 -0.34910798
-0.110455394 0.07110162 0.09258799 0.054148644 -0.2877456 -0.46754634 0.10183846 0.03596255
-0.0930967 -0.05860132 0.07843937 0.6006256 -0.1808831 -0.11756844 -0.0009369254 -0.055661574
-0.07278685 -0.11879936 0.59560513 -0.027023438 0.0065768664 -0.08075279 0.052695364 -0.09802583
0.032364503 0.4427705 0.08520643 0.109489374 0.029873908 0.061232403 -0.11494365 0.04304193
0.5258749 0.31396502 0.11930476 0.02390349 -0.06514189 -0.020438924 -0.10403733 0.2717937
0.25849777 -0.02302155 0.033836395 -0.09468661 -0.07923132 0.008618847 0.33770984 0.32612982
0.11909812 -0.10954772 -0.021011412 -0.02660194 0.05381635 0.26801035 -0.02020704 0.09958993
-0.04039474 -0.1046104 -0.01436618 -0.09853503 0.08149972 -0.23244168 0.4654419 -0.079876006
0.053349182 -0.02038218 0.1041192 0.25509796 -0.087582774 0.09448075 0.031770572 -0.110835865
0.023501113 -0.02478084 0.03517661 0.32873267 -0.25097218 -0.08295952 0.092361495 0.1093481
-0.11974424 0.39028928 0.09356739 0.15557675 -0.060506478 -0.12038405 -0.09601706 0.051296473
0.42605925 -0.04057324 0.0064997505 0.064123675 -0.11459811 0.029837653 -0.018375516 0.77750146
0.16169898 0.14735623 -0.024243623 0.042772755 -0.10916531 -0.012392163 0.60342914 0.113694444
-0.12972617 0.00454627 -0.064742476 0.08565456 -0.0025087 -0.26040098 -0.12859237 0.37262407
-0.10478979 -0.005207017 -0.12494527 -0.07698734 0.290287 0.35579392 0.01991598 -0.10548523
00000000: f659 0a3f 273c 023e 9422 bbbd 40cc 13bb
00000010: 00ac 2abb 28c4 b7bd d0cf 0a3c a665 cebe
00000020: ee68 81be 5b87 bdbe 9a16 cdbd dcd7 e53d
00000030: 6020 cc3c da72 ddbd fc94 1f3f fb57 223e
00000040: dcd7 0cbe 64b8 423d f0e8 29bc a61b c0bd
00000050: ea10 dabd e291 15be 4940 a73e 2592 a1be
00000060: 70af 033c d8c8 82bc a07c 413d b669 98bd
00000070: 99f6 4bbe 2010 cb3c b3ce 053f 86a5 9c3d
00000080: 2c29 353d 5091 42bc c086 a33c c6e4 fd3e
00000090: 6f98 2c3e f338 843d e079 acbc 8002 ec3a
000000a0: 44c8 ab3d 16e9 bbbd 627a 01bf 703c aabe
000000b0: 2b19 ecbe d4e3 e1bd f8c1 52bd d877 c13d
000000c0: c058 51bd 78da 8fbd 7175 33be 5bdd 173f
000000d0: 20a1 c93d b6e7 bfbd 9c5c 413d 226f f1bd
000000e0: 0d82 c5bd 027d 4b3e 1762 e43c a06c 233d
000000f0: 620d c3bd 6670 b9bd f02b 473d 5c47 153f
00000100: 653c 68bd 8fa5 f83d 3836 bdbc f006 7bbc
00000110: 4e76 fb3d f076 d6bc 5c10 50be dea3 d6be
00000120: 674e 453e 00c8 74b9 6c51 843d 00bf b03a
00000130: 3681 95bd 154d e03d e381 333e aea7 36be
00000140: 8272 df3d 4a23 ec3d 722a f93d b24e d13d
00000150: 5d3e 0f3f 8cbd ad3d f985 17bc 5e1a febd
00000160: d8cb 993d 3c99 b63d ca97 fabd ca1f babd
00000170: 99c3 31bc 7e82 863e d0a9 4c3c c015 d9bc
00000180: ec46 533d f81a f73c 3d59 653e ef1c 3a3e
00000190: 812e dcbd 346c d43d a0dc cf3b 00fc cab9
000001a0: b069 09bd 7434 363f 0d7d b23a b631 683d
000001b0: 7060 b7bd 7823 6bbd 585c eb3c 5cef d8bd
000001c0: 753f e83e 432d 953e d04a 9f3d c258 babd
000001d0: 2a4a b13d 20b2 663d 20fe d0bb e6cb c7bd
000001e0: 6812 8c3e f23a aabd 887b efbd 7297 fabd
000001f0: a62e df3d acaa eb3d d72d 043f a5f8 123d
00000200: e247 bdbc 7462 f0bd 188c f83d c0fc 3dbd
00000210: 0090 a2bc d195 8a3d 79f3 e73e 48be b2be
00000220: 7036 e2bd ba9d 913d c69e bd3d f8ca 5d3d
00000230: 6453 93be 3c62 efbe af90 d03d 784d 133d
00000240: 7ca9 bebd f007 70bd d2a4 a03d 99c2 193f
00000250: 6b39 39be b9c7 f0bd 009c 75ba 64fd 63bd
00000260: 4611 95bd 144d f3bd 9479 183f 4260 ddbc
00000270: c182 d73b b861 a5bd 18d7 573d c4c1 c8bd
00000280: a490 043d d1b2 e23e b580 ae3d f73b e03d
00000290: 20ba f43c d4ce 7a3d 9467 ebbd bc4c 303d
000002a0: bd9f 063f 06c0 a03e 0e56 f43d 40d1 c33c
000002b0: 1c69 85bd 886f a7bc 8611 d5bd 8b28 8b3e
000002c0: d259 843e b197 bcbc 0898 0a3d 0eeb c1bd
000002d0: 0844 a2bd 1036 0d3c 4ee8 ac3e 7dfa a63e
000002e0: b7e9 f33d 8e5a e0bd 2020 acbc 50ec d9bc
000002f0: 886e 5c3d a738 893e 3c89 a5bc cef5 cb3d
00000300: f474 25bd fa3d d6bd 2060 6bbc bccc c9bd
00000310: 53e9 a63d 3105 6ebe 674e ee3e 0896 a3bd
00000320: ac84 5a3d 88f8 a6bc 723c d53d 339c 823e
00000330: 995e b3bd 207f c13d dc21 023d eafd e2bd
00000340: 6885 c03c 3001 cbbc 5915 103d a64f a83e
00000350: 6d7f 80be aee6 a9bd 0628 bd3d e6f1 df3d
00000360: 783c f5bd ffd3 c73e 43a0 bf3d 834f 1f3e
00000370: a4d5 77bd ea8b f6bd 98a4 c4bd 401c 523d
00000380: 7024 da3e 2030 26bd dcfb d43b 4653 833d
00000390: 6ab2 eabd 186e f43c 4088 96bc 560a 473f
000003a0: 6b94 253e 8de4 163e 909a c6bc 7c32 2f3d
000003b0: 1092 dfbd 8008 4bbc 557a 1a3f a2d8 e83d
000003c0: f0d6 04be e0f8 943b b497 84bd a86b af3d
000003d0: 0069 24bb 4753 85be b8ad 03be 95c8 be3e
000003e0: 089c d6bd a09f aabb 4ee3 ffbd 8aab 9dbd
000003f0: 7fa0 943e 9f2a b63e d626 a33c a408 d8bd

gru.weight_hh_l0 f4 [192, 64]
0.11348803 -0.041336358 0.031129673 0.08386189 0.0398048 0.10918555 -0.11995396 0.007459983
0.095581055 -0.07257217 -0.08699247 0.10340904 -0.051874816 -0.019324273 -0.12101382 -0.01507023
-0.07011999 -0.04086508 -0.08152254 -0.029536203 -0.039092362 -0.10770777 0.10598232 -0.0070138723
-0.08565818 0.10938075 0.12185958 -0.10769114 0.09010726 0.07535125 0.054915667 -0.10124193
-0.048384294 0.11504346 -0.03344077 -0.08081247 0.10481021 0.049498037 -0.03856264 0.0027091652
-0.010842919 -0.023770764 -0.074006066 -0.015150696 0.01901801 -0.10986969 0.050218612 -0.0017431974
-0.110001445 -0.026230887 -0.067015976 0.026230425 0.06421742 0.07939494 0.030283347 0.049362645
-0.07296361 -0.032047376 -0.088018075 0.0035555214 -0.09594089 0.02441375 -0.08160913 -0.118747756
-0.09030624 -0.032312706 -0.044339612 0.0043654293 0.12448037 0.11856696 0.019523114 -0.108769536
-0.121976405 0.03261213 0.026210055 0.04141946 0.032991633 0.055975035 -0.056461856 -0.01757434
-0.093958646 0.11306515 -0.07212444 0.07911649 -0.053186283 -0.0119470805 0.124002054 0.014721915
-0.12342444 0.10138036 0.0028392822 -0.0389248 -0.056531385 0.025772586 0.12369989 0.009829223
-0.12069133 0.060051292 0.02476266 0.020972282 0.07940316 0.10654165 0.076843485 0.055146143
0.018693134 0.05412534 0.07451326 -0.054326043 -0.056153715 0.08282073 -0.050500855 -0.053500548
-0.109802395 0.10327673 -0.085143596 -0.0010474026 -0.0906156 0.0014437735 0.08747654 0.0030860454
-0.08521029 -0.06066422 -0.06659715 -0.004096359 -0.11205855 -0.042561278 0.098318085 0.109668195
-0.08173637 0.059399962 0.0523438 -0.008644193 -0.04312089 -0.10269505 -0.026219055 -0.07316309
0.092013866 -0.0932212 -0.107456446 -0.03145072 -0.008667827 -0.10122363 -0.056554243 -0.082714826
-0.080347076 0.026575074 0.06877209 0.03516528 0.038675323 0.081606865 -0.04385443 0.05721861
-0.07376097 -0.08050053 -0.08127573 -0.06670132 0.073420316 0.006803453 -0.12006663 0.079378694
-0.055434868 -0.1162388 -0.023317814 0.024448693 -0.02603747 0.052454203 0.052116066 0.064098954
0.111567125 -0.054682642 -0.10924974 0.009730682 0.0050671846 -0.003344193 0.065349564 -0.05319716
-0.08386846 0.03557846 -0.050919786 0.08516854 0.029033616 -0.09282082 -0.074902385 0.11782876
-0.121665195 0.08866024 0.09060714 0.01226452 -0.010080233 0.050396666 -0.043072566 0.115265414
0.02273862 -0.06844604 0.12133971 -0.08500317 -0.065779805 0.0038525313 0.0014757216 -0.08494876
0.112515435 -0.072225004 0.0879055 0.117223665 0.05678387 -0.072306976 0.055074558 0.07593621
0.05185704 0.032371208 -0.09243992 0.113626614 -0.104414955 0.058912084 -0.11055872 0.08219673
-0.009742364 -0.037574843 -0.01022546 0.055138722 0.001720205 -0.09664583 -0.015968159 -0.08937658
0.063987 -0.06002155 0.029659599 -0.04724866 -0.10051623 0.025673881 0.07898623 -0.12398061
0.1009208 0.052831575 -0.09089933 -0.10449831 -0.044127434 0.100932375 -0.059892252 0.03814669
-0.08486982 0.047401905 -0.084064946 -0.06785749 -0.028862417 0.019324794 -0.09098846 0.10079895
-0.02585885 0.08188987 0.11152054 0.004482597 0.06327045 0.004092261 0.018480703 0.0923734
00000000: 6a6c e83d 5050 29bd a803 ff3c c8bf ab3d
00000010: 5c0a 233d ac9c df3d 6caa f5bd e072 f43b
00000020: 00c0 c33d b8a0 94bd 1c29 b2bd 1ec8 d33d
00000030: b07a 54bd f04d 9ebc 18d6 f7bd 20e9 76bc
00000040: 129b 8fbd 2462 27bd 4af5 a6bd e8f5 f1bc
00000050: 501f 20bd e495 dcbd 420d d93d a0d4 e5bb
00000060: 8e6d afbd 0403 e03d 8491 f93d 2c8d dcbd
00000070: 288a b83d c251 9a3d 40ef 603d ee57 cfbd
00000080: 9c2e 46bd e89b eb3d 30f9 08bd 0281 a5bd
00000090: bca6 d63d 74be 4a3d dcf3 1dbd 408c 313b
000000a0: 80a6 31bc e8ba c2bc 7e90 97bd a03a 78bc
000000b0: a8cb 9b3c 5c03 e1bd 08b2 4d3d 007c e4ba
000000c0: 7048 e1bd 28e2 d6bc ac3f 89bd 30e1 d63c
000000d0: 6c84 833d d099 a23d c814 f83c 7c30 4a3d
000000e0: f26d 95bd 1c44 03bd d242 b4bd c003 693b
000000f0: a87c c4bd 58ff c73c b022 a7bd 0632 f3bd
00000100: 7af2 b8bd 545a 04bd 749d 35bd e00b 8f3b
00000110: 90ef fe3d 3cd3 f23d f0ee 9f3c 90c2 debd
00000120: c4ce f9bd 4c94 053d 78b6 d63c 74a7 293d
00000130: 3c22 073d 1446 653d 8c44 67bd 10f8 8fbc
00000140: 646d c0bd b48e e73d fab5 93bd d407 a23d
00000150: dcd9 59bd b0bd 43bc caf4 fd3d 3034 713c
00000160: f4c5 fcbd 82a0 cf3d 4013 3a3b 9c6f 1fbd
00000170: 748d 67bd 0821 d33c 5e56 fd3d c00a 213c
00000180: 042d f7bd 58f8 753d 10db ca3c 10ce ab3c
00000190: 209e a23d 8232 da3d 1e60 9d3d ece0 613d
000001a0: 5822 993c 88b2 5d3d 689a 983d fc84 5ebd
000001b0: 7001 66bd ea9d a93d fcd9 4ebd 6423 5bbd
000001c0: 14e0 e0bd c082 d33d c45f aebd 0049 89ba
000001d0: ac94 b9bd 003d bd3a e626 b33d 403f 4a3b
000001e0: bc82 aebd 0c7b 78bd 1664 88bd c03a 86bb
000001f0: f47e e5bd bc54 2ebd fe5a c93d b899 e03d
00000200: 6665 a7bd 604d 733d 7466 563d 60a0 0dbc
00000210: 889f 30bd c851 d2bd 58c9 d6bc 88d6 95bd
00000220: c471 bc3d c2ea bebd 2012 dcbd 78d2 00bd
00000230: 8003 0ebc 564e cfbd 6ca5 67bd 6466 a9bd
00000240: 028d a4bd f8b3 d93c 62d8 8c3d 7809 103d
00000250: 046a 1e3d 8021 a73d b4a0 33bd 105e 6a3d
00000260: fe0f 97bd 76dd a4bd e473 a6bd b49a 88bd
00000270: 645d 963d 80ef de3b 7ee5 f5bd 4c91 a23d
00000280: ac0f 63bd 9c0e eebd 0005 bfbc a048 c83c
00000290: 884c d5bc 38da 563d a877 553d 5046 833d
000002a0: 4e7d e43d e8fa 5fbd 54be dfbd 706d 1f3c
000002b0: a00a a63b 402a 5bbb fed5 853d 44e5 59bd
000002c0: 3ac3 abbd b8ba 113d 4491 50bd d86c ae3d
000002d0: e8d7 ed3c d818 bebd 6c66 99bd 3450 f13d
000002e0: 9a2b f9bd 8093 b53d 3c90 b93d 20f1 483c
000002f0: 9027 25bc bc6c 4e3d dc6c 30bd 4610 ec3d
00000300: 5846 ba3c 702d 8cbd f480 f83d 2416 aebd
00000310: 90b7 86bd c07a 7c3b 006d c13a 9ef9 adbd
00000320: 7e6e e63d b4ea 93bd cc07 b43d f612 f03d
00000330: 3496 683d ae15 94bd dc95 613d 7284 9b3d
00000340: 0c68 543d ac97 043d 2451 bdbd 12b5 e83d
00000350: 82d7 d5bd cc4d 713d 9c6c e2bd c256 a83d
00000360: 709e 1fbc 14e8 19bd b088 27bc 24d9 613d
00000370: 8078 e13a 40ee c5bd a8cf 82bc 120b b7bd
00000380: 9e0b 833d 28d9 75bd b0f8 f23c d087 41bd
00000390: 74db cdbd 0852 d23c 88c3 a13d 8ce9 fdbd
000003a0: 90af ce3d ec65 583d 6e29 babd 3603 d6bd
000003b0: f8be 34bd a2b5 ce3d 9451 75bd b43f 1c3d
000003c0: 3ad0 adbd 8028 423d 3e2a acbd def8 8abd
000003d0: e070 ecbc 084f 9e3c 2858 babd ae6f ce3d
000003e0: f0d5 d3bc e0b5 a73d e264 e43d c0e2 923b
000003f0: f093 813d 6018 863b d864 973c 442e bd3d

gru.bias_ih_l0 f4 [192]
0.09944921 -0.18678327 -0.09761151 -0.04741514 -1.6692178 0.036394924 -0.35581502 -0.5357811
-1.298624 0.13268651 -0.45232534 -0.27132675 0.15229765 -0.7467562 -0.30792853 0.09447468
-0.39755931 -1.0444658 -1.5342011 -0.16501299 -0.24476404 -0.7611121 0.03702896 -0.18596722
-1.9187441 0.022156436 0.1509457 -0.49185002 -0.41923782 -0.4532271 -0.6263953 -0.016134286
0.111752644 -0.14568445 0.15068448 -0.29681486 -0.3883882 -0.10275732 0.025309151 -0.1674883
-0.42593288 -0.21005915 -0.46879134 0.042271193 -0.008494226 -0.045003984 -0.39146388 -0.031478077
-0.3818148 -1.3176863 0.38670823 -0.72319096 -0.044887926 -0.56186175 -0.56809837 0.18162294
-0.23540327 -0.048756856 0.2130131 0.0885836 -0.08484292 0.34568503 0.04070879 0.025958342
-0.18165237 -0.26851654 -0.34414113 -0.34848526 -0.65486556 -0.36044118 -0.21106435 -1.4923954
-0.056061786 -0.29751626 0.18606685 -0.2176965 -0.34912068 0.01621981 0.05674765 -0.12612954
-0.13521889 -0.17836793 0.044935733 -1.3709247 0.247526 -0.2949846 -0.25329256 -0.07549104
-0.24411997 -0.010170138 0.16354151 0.047130127 -0.6071751 -0.19060296 -0.108197875 -0.14733168
-0.03066846 -0.1438416 -0.25627765 -0.06708651 0.02626494 -0.14924252 -0.39348045 -0.5713072
0.28102443 0.030859686 -0.057214417 -0.21844581 -0.068351984 -0.020815767 -1.7744304 -0.0071045435
-0.3114089 -0.18374461 0.03394103 -1.5568714 -0.016908972 -1.4062647 0.21590826 -0.34863505
0.45931354 0.17089365 -0.23224518 -0.23371616 -0.48083335 -0.10927735 -0.23522046 0.51162446
-0.09140243 0.022416016 0.036043342 0.061086763 0.020346632 -0.20706233 0.08035443 -0.006448699
-0.101792485 -0.28587228 -0.0066055465 -0.016418636 -0.26105472 0.026334858 -0.032271896 0.08451919
-0.22334778 0.08151426 0.11898504 0.0385641 -0.065744214 0.1838131 0.23462133 -0.28505757
0.11052093 0.30500257 -0.32322955 -0.1772971 0.019066622 0.24784052 -0.019573553 0.24430656
0.20077844 -0.030868085 0.2083995 -0.08491508 0.061412267 0.071701854 0.27886078 0.0686862
-0.09613917 -0.24285655 0.051036324 -0.2500619 -0.078984894 0.27042004 -0.03063595 -0.12451703
-0.07215707 0.016674995 -0.5047051 0.008024714 0.24233636 0.007302082 -0.016931908 -0.24449252
-0.059618022 0.14360803 0.2099377 -0.115202375 0.062270273 0.25744605 -0.27654424 0.022509692
00000000: 07ac cb3d 1d44 3fbe 8be8 c7bd 6136 42bd
00000010: eea8 d5bf d812 153d 632d b6be f328 09bf
00000020: 5039 a6bf f9de 073e 3097 e7be 57eb 8abe
00000030: eaf3 1b3e 6a2b 3fbf cfa8 9dbe f17b c13d
00000040: e58c cbbe 0eb1 85bf b460 c4bf 2af9 28be
00000050: 6da3 7abe 3ed8 42bf aeab 173d 316e 3ebe
00000060: 6899 f5bf 6a81 b53c 8291 1a3e c4d3 fbbe
00000070: 57a6 d6be 620d e8be 715b 20bf 0d2c 84bc
00000080: 92de e43d 4e2e 15be 084d 1a3e 1ef8 97be
00000090: d1da c6be 6e72 d2bd 2355 cf3c 0e82 2bbe
000000a0: e013 dabe bf19 57be 6b05 f0be 8f24 2d3d
000000b0: 5e2b 0bbc 1956 38bd f46d c8be 28ef 00bd
000000c0: 3b7d c3be f2a9 a8bf 9ffe c53e 0b23 39bf
000000d0: 67dc 37bd 2cd6 0fbf e56e 11bf 5dfb 393e
000000e0: 8e0d 71be 45b5 47bd 1b20 5a3e 526b b53d
000000f0: 20c2 adbd a1fd b03e 43be 263d 97a6 d43c
00000100: 1403 3abe 007b 89be 4433 b0be a96c b2be
00000110: 45a5 27bf bf8b b8be 4121 58be d006 bfbf
00000120: 0ba1 65bd 0d54 98be 4f88 3e3e d5eb 5ebe
00000130: f2bf b2be 68df 843c 3970 683d 1a28 01be
00000140: d276 0abe 15a6 36be 880e 383d 767a afbf
00000150: 7577 7d3e 3908 97be 90af 81be 0c9b 9abd
00000160: 96fa 79be a7a0 26bc 6d77 273e 850b 413d
00000170: d46f 1bbf 6c2d 43be d996 ddbd 1ede 16be
00000180: 6c3c fbbc 364b 13be d336 83be a764 89bd
00000190: 9229 d73c 08d3 18be 4576 c9be 3041 12bf
000001a0: 6fe2 8f3e 74cd fc3c aa59 6abd 42b0 5fbe
000001b0: 20fc 8bbd d485 aabc 8920 e3bf 3bcd e8bb
000001c0: fd70 9fbe 8c27 3cbe c005 0b3d 9047 c7bf
000001d0: af84 8abc 7b00 b4bf 0e17 5d3e 4b80 b2be
000001e0: 252b eb3e bffe 2e3e aed1 6dbe 4a53 6fbe
000001f0: ca2f f6be cecc dfbd a2dd 70be d2f9 023f
00000200: 3231 bbbd cba1 b73c 2fa2 133d 1d36 7a3d
00000210: fbad a63c 2608 54be dd90 a43d 9c4f d3bb
00000220: 9478 d0bd da5d 92be 5773 d8bb 6080 86bc
00000230: f7a8 85be 33bc d73c 892f 04bd 6618 ad3d
00000240: 48b5 64be f3f0 a63d 6eae f33d 64f5 1d3d
00000250: e7a4 86bd 8039 3c3e 9340 703e 11f3 91be
00000260: cc58 e23d 4c29 9c3e 587e a5be 5f8d 35be
00000270: 9b31 9c3c e8c9 7d3e b758 a0bc 802b 7a3e
00000280: dd98 4d3e 11df fcbc ae66 553e f5e7 adbd
00000290: 6e8b 7b3d 6cd8 923d d7c6 8e3e 5aab 8c3d
000002a0: 9de4 c4bd 63af 78be 770b 513d 1d08 80be
000002b0: d5c2 a1bd 7f74 8a3e 3ef8 fabc c902 ffbd
000002c0: 16c7 93bd 009a 883c 5a34 01bf 177a 033c
000002d0: 0627 783e 4e46 ef3b c9b4 8abc 3f5c 7abe
000002e0: 0732 74bd fc0d 133e e9f9 563e 39ef ebbd
000002f0: 1d0f 7f3d f8cf 833e 3597 8dbe 3f66 b83c

gru.bias_hh_l0 f4 [192]
-0.017654791 -0.2566336 -0.17361796 -0.18679251 -1.4443736 0.0426331 -0.30678788 -0.5237126
-1.0996816 0.1508168 -0.5156025 -0.20553797 0.1462602 -0.7290778 -0.27125135 0.018236153
-0.36521813 -1.1122904 -1.526475 -0.31816107 -0.2160974 -0.75196016 -0.06382089 -0.121893965
-1.9138012 0.047709942 0.22986755 -0.5073938 -0.33008352 -0.48854733 -0.51713145 0.07538983
0.19027898 -0.07390482 0.19434007 -0.30106592 -0.43772307 -0.11381987 0.11998432 -0.077187814
-0.28627953 -0.13766001 -0.51721 0.026418865 0.0022713405 -0.082746595 -0.4675911 0.10331168
-0.4099793 -1.2337549 0.3894159 -0.90330714 -0.07686545 -0.5359278 -0.66493815 0.10578171
-0.40573055 0.09270971 0.18316315 -0.07438184 -0.19136646 0.33363345 0.040501174 -0.027866075
-0.024480423 -0.3531229 -0.52234226 -0.56231314 -0.72610235 -0.17705722 -0.1303686 -1.5043511
-0.040152967 -0.40632394 0.094925866 -0.09764894 -0.2510248 0.05080145 -0.13626932 -0.21724114
-0.05843665 -0.10167512 0.0913847 -1.3621409 0.28268754 -0.3534083 -0.2974707 -0.085260704
-0.34066847 -0.0541604 0.15536256 0.1860626 -0.67301065 -0.21313703 -0.11093051 -0.16656634
-0.21866727 -0.28186622 -0.2405557 -0.044869155 0.029426817 -0.12888375 -0.26931575 -0.7110716
0.10293935 -0.1772067 -0.25939965 -0.35850266 0.010743236 -0.20478421 -1.9201046 -0.14785716
-0.30059814 -0.15422344 -0.021532035 -1.444032 -0.05450958 -1.3507692 0.2348873 -0.39579597
0.35229823 -0.008215785 -0.09361108 -0.15551916 -0.26896828 -0.13906434 -0.08973487 0.3806278
-0.20965932 -0.075756796 0.10236833 -0.11578256 0.0190132 -0.28160247 -0.034141917 0.059514694
-0.081693016 -0.31760925 0.07838391 0.082430504 -0.2953972 0.061319213 -0.026319794 0.33332667
-0.08195198 0.020008055 0.02580224 -0.095235504 -0.14559416 0.08959525 0.26230448 -0.1206156
0.049881563 0.20118523 -0.3885211 -0.10960338 -0.0630119 0.068691336 0.031609904 0.22657472
0.3496154 -0.2250677 0.3113869 -0.006587811 0.036171824 0.08044708 0.25650856 -0.108696274
-0.02932215 -0.19299611 0.19355336 -0.33015338 -0.13503964 0.26308623 0.07254126 -0.20515351
0.07482047 -0.034963373 -0.6191101 0.040258393 0.12594295 0.06254177 0.025478423 -0.34495488
0.061566662 0.19641902 0.32908833 -0.18070969 0.18105139 0.50625294 -0.24877426 0.17582187
00000000: c8a0 90bc 7b65 83be e8c8 31be 8946 3fbe
00000010: 3ce1 b8bf 0ca0 2e3d 4d13 9dbe 0712 06bf
00000020: 5ec2 8cbf b86f 1a3e 87fe 03bf 8c78 52be
00000030: 3cc5 153e d8a4 3abf 75e1 8abe fc63 953c
00000040: dffd babe 885f 8ebf 8863 c3bf 02e6 a2be
00000050: a348 5dbe 7680 40bf 87b4 82bd 8ba3 f9bd
00000060: 70f7 f4bf 806b 433d 6662 6b3e 8fe4 01bf
00000070: b500 a9be e022 fabe ba62 04bf fc65 9a3d
00000080: 7ed8 423e 695b 97bd 1501 473e 5025 9abe
00000090: 3d1d e0be 641a e9bd 57ba f53d a514 9ebd
000000a0: 3b93 92be bff6 0cbe e067 04bf 606c d83c
000000b0: c5da 143b 0c77 a9bd 1a68 efbe 1395 d33d
000000c0: cfe8 d1be aeeb 9dbf 8561 c73e 233f 67bf
000000d0: a26b 9dbd 9032 09bf 6339 2abf 15a4 d83d
000000e0: eabb cfbe 97de bd3d 1f8f 3b3e 8255 98bd
000000f0: 92f5 43be 01d2 aa3e 8fe4 253d 6547 e4bc
00000100: 2b8b c8bc 86cc b4be 39b8 05bf c1f3 0fbf
00000110: d8e1 39bf 7d4e 35be 597f 05be 948e c0bf
00000120: 7077 24bd b109 d0be 7e68 c23d 2bfc c7bd
00000130: 5386 80be 2e15 503d 2f8a 0bbe 7674 5ebe
00000140: 455b 6fbd 0c3b d0bd e727 bb3d a25a aebf
00000150: 6cbc 903e eff1 b4be 144e 98be 2a9d aebd
00000160: 196c aebe 4cd7 5dbd 5d17 1f3e 3287 3e3e
00000170: 6d4a 2cbf 9840 5abe 892f e3bd 5e90 2abe
00000180: 50ea 5fbe c550 90be 3c54 76be b8c8 37bd
00000190: 8210 f13c 1afa 03be c1e3 89be ca08 36bf
000001a0: ded1 d23d ac75 35be 08d0 84be a98d b7be
000001b0: 6604 303c f4b2 51be fdc5 f5bf de67 17be
000001c0: 00e8 99be c0ec 1dbe f363 b0bc 0ad6 b8bf
000001d0: 7045 5fbd 01e6 acbf 4c86 703e c5a5 cabe
000001e0: 6f60 b43e 809b 06bc 2ab7 bfbd 6a40 1fbe
000001f0: 36b6 89be e266 0ebe eac6 b7bd a6e1 c23e
00000200: efb0 56be 6126 9bbd 7da6 d13d 681f edbd
00000210: 92c1 9b3c 332e 90be 65d8 0bbd aec5 733d
00000220: ab4e a7bd ae9d a2be be87 a03d 53d1 a83d
00000230: 4d3e 97be db29 7b3d 9c9c d7bc cba9 aa3e
00000240: 71d6 a7bd efe7 a33c 385f d33c d50a c3bd
00000250: a316 15be b77d b73d c64c 863e 5005 f7bd
00000260: 9c50 4c3d 8003 4e3e 3dec c6be bd77 e0bd
00000270: 620c 81bd 0bae 8c3d 6379 013d 3403 683e
00000280: ca00 b33e 2678 66be 1b6e 9f3e 90de d7bb
00000290: e828 143d 70c1 a43d 1755 833e 279c debd
000002a0: 0135 f0bc c6a0 45be da32 463e dd09 a9be
000002b0: d547 0abe 3db3 863e 8390 943d c313 52be
000002c0: 793b 993d c135 0fbd 007e 1ebf fce5 243d
000002d0: 30f7 003e e615 803d 20b8 d03c ed9d b0be
000002e0: 532d 7c3d 1122 493e 447e a83e f60b 39be
000002f0: 8965 393e cb99 013f aebe 7ebe a60a 343e

gru.weight_ih_l1 f4 [192, 64]
-0.13104795 -0.17160654 -0.103373036 0.46024227 0.1304755 0.15212199 0.04906401 1.0935874
-0.124308825 0.3385316 0.28833267 -0.32721135 0.40537757 0.22418454 0.3197111 -0.039841082
0.4119323 0.08275634 -0.22959602 0.88670313 -0.15678696 -0.053949513 -0.35499245 0.18700105
-0.29014176 -0.10766801 0.31413198 -0.10417494 -0.43512687 -0.08737208 -0.08104404 -0.339469
-0.30843952 -0.041927744 -0.22438753 -0.12352598 -0.18871666 -0.055487648 -0.058024924 0.4896271
-0.15518549 0.30901745 0.041259993 0.36392832 0.02278715 -0.34580374 -0.7939359 0.13813145
0.040439002 0.17676404 -0.16343148 1.1087395 -0.21869943 0.92245495 -0.022918925 0.06308794
0.17072925 0.17932004 -0.108338065 0.29319447 -0.03435827 -0.010122134 0.25293162 -0.109847814
-0.06625968 0.026084283 -0.13192426 -0.23104808 -0.39477602 0.3138267 -0.043136425 -1.544875
-0.011572118 0.33568355 0.009513498 -0.0016690196 0.29621756 0.041473467 -0.032537747 -0.30138794
0.23517704 -0.049107887 -0.23026678 -0.84220505 0.14299257 -0.13568139 -0.30371657 0.2956513
-0.012575794 -0.3893065 0.45484817 -0.09486371 0.5152708 -0.090257086 0.06256965 -0.27655432
-0.25828114 -0.0361813 -0.30120984 0.2597642 -0.07887171 -0.1636173 -0.41143674 -0.5839103
-0.008092385 0.24045035 0.28653988 0.28287876 0.40419197 -0.11794974 1.1452045 0.0037149498
-0.062281463 -0.10818854 -0.08317984 -1.2214129 -0.4225707 -1.0217816 -0.042206895 0.3373192
-0.03480118 0.023483789 -0.3163551 0.19045149 -0.106843 0.051210847 0.34190652 -0.11193555
-0.25154158 0.15398292 -0.14552227 -0.12156059 -0.27352324 0.51809865 0.21375275 -0.60577005
0.039770517 0.85574883 0.18089326 -0.41794637 0.59006387 -0.03456183 0.30553517 -0.23804472
0.32131603 -0.23438899 -0.22783138 -0.4647354 0.1094743 -0.09441451 -0.65393496 0.6011965
-0.018101374 -0.55379593 0.351422 -0.13078521 0.19281201 -0.21025266 0.13959472 -0.260282
-0.45106575 0.16446353 -0.36594567 0.2576126 -0.2493448 -0.2964692 -0.49045095 -0.22603111
0.07795607 0.6966205 0.39340258 0.78928685 0.31063458 -0.094739005 0.22455728 0.41688293
-0.047945045 -0.18270078 0.319473 -0.14898963 -0.69032943 -0.2789172 0.25128627 0.68669116
0.1842819 0.32015228 -0.47948623 0.013343124 -0.015662665 -0.08885638 0.4391607 0.004372289
0.009295347 0.17235535 -0.1535239 0.4007434 0.36273932 0.27732834 0.028824609 1.6296288
-0.09648967 0.300584 0.030052936 -0.41672948 0.31203654 0.13167349 0.49730206 -0.17963044
0.351166 0.056037206 -0.24658428 0.8271324 -0.05719508 -0.18686117 -0.33142248 0.43149775
-0.43689352 -0.28623 0.27418593 0.13796826 -0.37165835 -0.15348464 -0.20765553 -0.34572038
-0.23553582 -0.006914464 -0.3452984 0.19013567 -0.27555707 0.022579242 -0.23257077 0.15072955
-0.25740352 0.3961106 0.2521794 0.4694222 0.21699521 -0.44244576 -1.1532619 -0.06529644
0.043686803 -0.033059984 0.09301388 1.4999411 -0.3065484 0.9204998 0.0066259545 0.3522332
0.13486002 0.05638257 -0.21114111 0.06752002 0.19359356 -0.028385034 0.2727801 -0.12949345
00000000: 6f31 06be a0b9 2fbe 3eb5 d3bd e0a4 eb3e
00000010: 5f9b 053e dec5 1b3e 58f7 483d acfa 8b3f
00000020: a095 febd 0454 ad3e 57a0 933e 3f88 a7be
00000030: a68d cf3e a290 653e 2cb1 a33e 6730 23bd
00000040: cae8 d23e 287c a93d 381b 6bbe fafe 623f
00000050: c38c 20be 2afa 5cbd 92c1 b5be 347d 3f3e
00000060: 768d 94be 0c81 dcbd e8d5 a03e ac59 d5bd
00000070: f3c8 debe 22f0 b2bd 6bfa a5bd e1ce adbe
00000080: c9eb 9dbe 6dbc 2bbd d8c5 65be 30fb fcbd
00000090: f13e 41be 0447 63bd 8bab 6dbd 67b0 fa3e
000000a0: f2e8 1ebe 8937 9e3e 3d00 293d d054 ba3e
000000b0: 1eac ba3c 300d b1be 623f 4bbf 5572 0d3e
000000c0: 5ea3 253d a201 353e 955a 27be 2deb 8d3f
000000d0: bef2 5fbe 0226 6c3f 78c0 bbbc 4034 813d
000000e0: a6d3 2e3e ac9f 373e 59e0 ddbd 961d 963e
000000f0: 42bb 0cbd 4fd7 25bc 4180 813e e4f7 e0bd
00000100: 28b3 87bd b5ae d53c 2717 07be de97 6cbe
00000110: 1520 cabe e5ad a03e d2af 30bd 77be c5bf
00000120: fb98 3dbc b7de ab3e 81de 1b3c 01c3 daba
00000130: d4a9 973e 15e0 293d 4d46 05bd 854f 9abe
00000140: 40d2 703e 5a25 49bd 0ecb 6bbe c09a 57bf
00000150: a56c 123e 10f0 0abe bd80 9bbe 9b5f 973e
00000160: b40a 4ebc 2e53 c7be dce1 e83e e847 c2bd
00000170: cae8 033f b5d8 b8bd 8424 803d 8798 8dbe
00000180: 6d3d 84be d832 14bd 2d38 9abe d0ff 843e
00000190: 7e87 a1bd 4b8b 27be d6a7 d2be 257b 15bf
000001a0: ec95 04bc 9e38 763e 5bb5 923e 7cd5 903e
000001b0: 40f2 ce3e a28f f1bd 1096 923f 8476 733b
000001c0: d91a 7fbd f491 ddbd 315a aabd 4257 9cbf
000001d0: 305b d8be bdc9 82bf 23e1 2cbd 1ab5 ac3e
000001e0: af8b 0ebd 1361 c03c 4cf9 a1be b705 433e
000001f0: 81d0 dabd 77c2 513d 5f0e af3e 773e e5bd
00000200: 0fca 80be b3ad 1d3e ca03 15be c2f4 f8bd
00000210: 3d0b 8cbe 1da2 043f 00e2 5a3e bf13 1bbf
00000220: 69e6 223d 5b12 5b3f 153c 393e 11fd d5be
00000230: 6d0e 173f b590 0dbd 1b6f 9c3e ffc1 73be
00000240: 8983 a43e ab03 70be a14c 69be ccf1 edbe
00000250: 1034 e03d 655c c1bd 4868 27bf 04e8 193f
00000260: 5549 94bc 92c5 0dbf 96ed b33e 8fec 05be
00000270: 8370 453e 794c 57be ebf1 0e3e af43 85be
00000280: 17f2 e6be 2169 283e 3b5d bbbe cce5 833e
00000290: 3e54 7fbe d0ca 97be 631c fbbe b374 67be
000002a0: 6fa7 9f3d b955 323f 106c c93e b40e 4a3f
000002b0: 7f0b 9f3e 8606 c2bd 58f2 653e ae71 d53e
000002c0: 0662 44bd ea15 3bbe f791 a33e bd90 18be
000002d0: 6eb9 30bf 3cce 8ebe 98a8 803e feca 2f3f
000002e0: 65b4 3c3e 00eb a33e 387f f5be 1e9d 5a3c
000002f0: fd4e 80bc 55fa b5bd acd9 e03e 6b45 8f3b
00000300: 834b 183c ec7d 303e 5f35 1dbe 3d2e cd3e
00000310: f8b8 b93e fbfd 8d3e 9621 ec3c ad97 d03f
00000320: 609c c5bd 25e6 993e 9331 f63c 915d d5be
00000330: 41c3 9f3e 6ad5 063e 609e fe3e 0bf1 37be
00000340: 08cc b33e 4587 653d 9780 7cbe f3be 533f
00000350: 6345 6abd 8958 3fbe 35b0 a9be 46ed dc3e
00000360: 82b0 dfbe bd8c 92be 1962 8c3e 8d47 0d3e
00000370: 014a bebe 142b 1dbe a7a3 54be 4302 b1be
00000380: 4d30 71be ba92 e2bb f4ca b0be edb2 423e
00000390: d115 8dbe 1af8 b83c 0827 6ebe d958 1a3e
000003a0: 65ca 83be 02cf ca3e a91d 813e 1b58 f03e
000003b0: fe33 5e3e 4088 e2be 169e 93bf 24ba 85bd
000003c0: eff0 323d e869 07bd 107e be3d 12fe bf3f
000003d0: e9f3 9cbe e0a5 6b3f 891e d93b e957 b43e
000003e0: bf18 0a3e 69f1 663d 6035 58be f047 8a3d
000003f0: 643d 463e bb87 e8bc d5a9 8b3e ee99 04be

gru.weight_hh_l1 f4 [192, 64]
-0.075858384 0.020160735 -0.003626883 0.035800993 0.034402475 -0.034350216 0.042835027 -0.0023769438
0.01199992 -0.06605567 0.07620253 0.018139973 -0.12258057 -0.094033405 0.037931263 0.0051834136
-0.09576343 0.02213201 0.029381618 -0.09827733 -0.06739554 0.0082666725 -0.05320327 -0.03424029
0.00975208 -0.028184831 -0.033095762 0.013533443 0.06913547 -0.026229635 0.12444709 -0.12299965
0.03374909 -0.11226033 -0.1126927 0.047808826 -0.039971292 0.054227978 -0.078511074 -0.099919036
-0.030181095 -0.08009139 0.0044395328 0.061543524 0.09245911 -0.082894504 0.040678814 -0.027716622
0.08688821 0.0024900585 0.02153109 -0.020408869 -0.044406474 0.051068917 -0.11992869 -0.12425318
-0.067594275 0.06624259 0.049637154 0.01864867 -0.08089693 -0.048568204 -0.015342921 0.002281472
0.024836197 0.0052025765 0.001801759 -0.017700344 0.037952185 0.020565152 -0.06932646 -0.0062483847
0.056649238 -0.06694648 -0.06762411 -0.058912113 -0.07156411 0.047671124 -0.014348209 0.04706885
-0.08293161 0.015923917 0.06955254 -0.043542057 -0.09445864 -0.02614656 -0.018135324 -0.07748963
0.0789275 0.00909397 -0.024204865 0.026002437 0.120813236 -0.05861762 -0.055887714 0.04833086
-0.015493795 0.064129174 0.11063853 0.11024834 0.0009429306 0.041543737 -0.05151823 -0.058101743
0.06907596 -0.069352955 -0.076002166 -0.033920065 -0.039634585 -0.11744854 -0.033290982 0.048090428
0.11822401 0.06315522 -0.12482518 0.00034417212 0.11196448 0.038919985 0.06797512 -0.031400487
0.049755678 0.028167978 0.10980484 -0.0075054765 0.024749145 0.04896599 0.050966635 -0.048558757
-0.07167852 -0.027936518 0.06852755 0.047630906 0.09637998 0.06595801 0.0005887598 -0.042720094
-0.11919981 -0.119892195 0.030167073 0.0007843971 -0.115278736 0.11957623 0.051945284 -0.08252193
0.004260689 -0.061774164 0.112550914 0.11610277 0.011027336 0.077222064 0.012277052 0.10272798
-0.11490828 0.023931712 0.09199704 0.0147091 0.0033670962 -0.10399385 -0.104338065 -0.050006256
0.12119357 0.00011745095 0.06718369 -0.059357986 0.06459314 0.04652247 -0.011170104 -0.045060948
-0.0366119 0.07953848 0.03262174 -0.007969767 0.06108485 0.12023629 0.0596762 -0.09817426
0.11249204 0.06368177 -0.08856106 0.11572246 0.09681982 -0.081572145 0.1085739 -0.039961368
-0.047918975 0.09341635 -0.122663066 -0.04822655 -0.058998317 -0.027854636 -0.058806434 0.10348776
0.03143601 0.038340777 0.05404213 0.10223539 0.07972084 0.06517939 -0.06731494 0.022210494
0.096464604 0.027708456 -0.044756055 -0.08198607 0.115867436 -0.072406456 -0.03740804 0.009714574
-0.068790376 -0.017680734 -0.080462635 0.09669566 -0.1081678 -0.029073179 0.054132685 0.02332668
0.082214475 0.10801253 0.07764995 -0.084474474 -0.08544026 0.059021622 -0.11494565 0.11844234
-0.022364363 0.039044723 -0.0340793 -0.06118603 -0.066679135 0.1124005 0.019812912 0.016080812
-0.014214978 -0.08656302 0.097905815 0.11229515 0.060515597 0.12382883 0.04731086 -0.075277194
-0.06045969 0.11232971 -0.09555532 0.03896317 -0.07738015 0.11669591 0.061736852 0.016745731
0.12407702 0.03754033 0.12317516 -0.0610528 -0.10019036 -0.03164485 0.12372291 0.10239148
00000000: a45b 9bbd 2028 a53c 00b1 6dbb 10a4 123d
00000010: 9ce9 0c3d d0b2 0cbd c873 2f3d 80c6 1bbb
00000020: 509b 443c 3248 87bd 1210 9c3d 489a 943c
00000030: 860b fbbd 9694 c0bd d05d 1b3d a0d9 a93b
00000040: 9e1f c4bd 304e b53c b8b1 f03c a045 c9bd
00000050: ac06 8abd f070 073c aceb 59bd 8c3f 0cbd
00000060: 30c7 1f3c e0e3 e6bc 6c8f 07bd 60bb 5d3c
00000070: e696 8d3d 88df d6bc 1ede fe3d 3ee7 fbbd
00000080: 7c3c 0a3d bee8 e5bd 6ecb e6bd 30d3 433d
00000090: f0b8 23bd 281e 5e3d 6aca a0bd 5aa2 ccbd
000000a0: 583e f7bc f406 a4bd 8079 913b 1015 7c3d
000000b0: 345b bd3d 98c4 a9bd d49e 263d f80d e3bc
000000c0: 72f2 b13d 4030 233b f861 b03c 8030 a7bc
000000d0: 90e3 35bd a42d 513d 2c9d f5bd 7478 febd
000000e0: de6e 8abd 32aa 873d 5450 4b3d 18c5 983c
000000f0: 4aad a5bd 74ef 46bd e060 7bbc c084 153b
00000100: 4875 cb3c 607a aa3b 0029 ec3a 5000 91bc
00000110: c073 1b3d 4078 a83c 08fb 8dbd 40bf ccbb
00000120: 0809 683d 3c1b 89bd 827e 8abd d44d 71bd
00000130: 3490 92bd cc42 433d c014 6bbc 44cb 403d
00000140: 0cd8 a9bd e072 823c 9071 8e3d 2859 32bd
00000150: 8873 c1bd 5031 d6bc 8890 94bc e2b2 9ebd
00000160: bea4 a13d e0fe 143c 4849 c6bc 1003 d53c
00000170: ee6c f73d 0819 70bd 84ea 64bd 94f6 453d
00000180: b0d9 7dbc 2856 833d 7496 e23d e2c9 e13d
00000190: 002f 773a c429 2a3d c804 53bd 18fc 6dbd
000001a0: b277 8d3d ec08 8ebd 06a7 9bbd c4ef 0abd
000001b0: e057 22bd dc88 f0bd 205c 08bd 78fa 443d
000001c0: 6e1f f23d 8657 813d 58a4 ffbd 0072 b439
000001d0: a24d e53d 906a 1f3d 8a36 8b3d cc9d 00bd
000001e0: 9ccc 4b3d 88c0 e63c 5ce1 e03d 80f0 f5bb
000001f0: b8be ca3c 9090 483d 64c2 503d 8ce5 46bd
00000200: 30cc 92bd 20db e4bc 2c58 8c3d a018 433d
00000210: de62 c53d fe14 873d 0057 1a3a 44fb 2ebd
00000220: 081f f4bd 0a8a f5bd f020 f73c 00a0 4d3a
00000230: 4217 ecbd 62e4 f43d 94c4 543d 4201 a9bd
00000240: 409d 8b3b e806 7dbd 1881 e63d 4ac7 ed3d
00000250: 00ac 343c 9a26 9e3d b025 493c 0c63 d23d
00000260: 0855 ebbd 700c c43c f268 bc3d 70fe 703c
00000270: 80aa 5c3b bafa d4bd 32af d5bd 5cd3 4cbd
00000280: 5634 f83d 0050 f638 9a97 893d 5c21 73bd
00000290: 6849 843d 588e 3e3d d002 37bc d491 38bd
000002a0: 5cf6 15bd 12e5 a23d 609e 053d a093 02bc
000002b0: 1c34 7a3d 723e f63d 086f 743d 960f c9bd
000002c0: 3a62 e63d 966b 823d 805f b5bd e6ff ec3d
000002d0: 7849 c63d 4c0f a7bd fe5b de3d 88ae 23bd
000002e0: b046 44bd 1251 bf3d c636 fbbd 3489 45bd
000002f0: 38a8 71bd 682f e4bc 04df 70bd 64f1 d33d
00000300: 0cc3 003d 380b 1d3d 485b 5d3d ca60 d13d
00000310: ae44 a33d c67c 853d 6adc 89bd c8f2 b53c
00000320: 3c8f c53d d8fc e23c 2052 37bd 50e8 a7bd
00000330: e84b ed3d d649 94bd 2c39 19bd e029 1f3c
00000340: f8e1 8cbd 30d7 90bc 98c9 a4bd 6008 c63d
00000350: 1487 ddbd e02a eebc 3cba 5d3d 9817 bf3c
00000360: 1060 a83d ac35 dd3d f006 9f3d f400 adbd
00000370: 4efb aebd a8c0 713d a068 ebbd e691 f23d
00000380: 7835 b7bc 5ced 1f3d bc96 0bbd 349e 7abd
00000390: 128f 88bd 3c32 e63d b04e a23c e8bb 833c
000003a0: f0e5 68bc f447 b1bd d882 c83d 00fb e53d
000003b0: 34df 773d f899 fd3d 08c9 413d ee2a 9abd
000003c0: 94a4 77bd 1e0d e63d 82b2 c3bd d897 1f3d
000003d0: 7c79 9ebd 44fe ee3d c8df 7c3d 582e 893c
000003e0: 181c fe3d e4c3 193d 4243 fc3d 8012 7abd
000003f0: 9a30 cdbd 089e 01bd 7062 fd3d a0b2 d13d

gru.bias_ih_l1 f4 [192]
-0.43531835 -0.49561092 -0.6909636 -0.48534533 -0.18343419 -0.15195596 0.12606655 -0.3261357
-1.1517674 -1.1015348 0.09408988 -0.33917215 -0.014842227 -0.2331223 -0.22691071 0.0085296845
-0.35156086 -0.66815126 -0.51657695 -0.43000814 -0.41873944 -0.047522802 -0.26585335 0.15905738
-0.7437694 -0.4482474 0.36594656 -1.077839 -0.4438797 -0.06902521 -0.7286538 -0.19406106
-0.5548132 -0.44574726 -0.5713133 0.1660539 -0.90989053 -0.89327085 -0.3277452 0.04021287
-0.089257956 0.1252811 -0.95389694 -0.36515176 -1.0582472 -0.051221415 -0.17964788 0.17712362
-0.07931413 -0.081180714 0.030267296 -0.14135161 -0.33710104 -0.742085 -0.8786449 -0.036661897
-0.08753406 -0.6037161 -0.3423745 0.364708 -0.91234106 -1.2575997 0.010928043 -0.55851984
0.12953529 0.3468962 1.0897119 0.21165411 0.61340225 0.35350117 0.22246034 0.24440843
0.46438092 1.112637 0.2395933 0.7580222 0.8928481 -0.045373958 0.6271656 0.38599718
0.59422266 -0.14276266 0.49190074 0.6007488 0.33565852 -0.16774583 0.4292232 0.46421722
0.4304512 0.12016303 0.50267017 0.120343305 0.38633707 0.342168 0.63720715 0.48504084
0.06573437 0.43925962 0.5183152 0.10380179 -0.002143542 0.37092894 -0.13884209 0.5037105
0.6306551 0.7547852 0.5502699 0.7542412 0.27522916 0.883605 0.5561965 0.7368958
0.5782069 0.44072664 0.43843782 -0.038540497 0.4779473 0.26623583 0.83409667 0.2534056
0.34454128 0.22072056 0.28987706 0.26307037 0.64031816 0.06268493 0.08749242 0.7811676
-0.1687954 -0.02142554 -0.04086708 -0.122889414 0.102265656 0.010718637 0.31682137 0.022272695
0.04152527 -0.044198073 0.10291356 -0.05176598 0.15076333 -0.05685536 -0.068616375 -0.26714337
-0.06772002 0.11396427 -0.17058797 -0.14515592 -0.096082866 0.19503704 -0.067940935 -0.24277247
0.3155909 0.091212295 0.45286322 -0.0938924 -0.06094008 -0.4552888 0.0054504555 0.10937671
0.004317121 -0.0699633 0.010895687 0.16595751 0.092960864 0.0035343121 0.041201063 0.052561685
-0.05575959 0.2529302 0.048622884 0.1441985 0.16387087 -0.15418042 -0.19526592 -0.32111484
-0.04906878 0.008895111 0.192801 0.043051433 0.17356661 0.1774564 0.07022948 -0.18148726
0.32052964 0.08422788 0.11140657 0.402519 -0.21002078 -0.059701815 0.0014118517 -0.03924123
00000000: 0ce2 debe b7c0 fdbe fee2 30bf 2f7f f8be
00000010: 2cd6 3bbe 589a 1bbe 9717 013e 42fb a6be
00000020: 1d6d 93bf 18ff 8cbf 32b2 c03d f9a7 adbe
00000030: d02c 73bc 9db7 6ebe 485b 68be 17c0 0b3c
00000040: c9ff b3be f60b 2bbf 633e 04bf 072a dcbe
00000050: 0465 d6be 45a7 42bd ee1d 88be f0df 223e
00000060: ac67 3ebf af80 e5be 595d bb3e a1f6 89bf
00000070: 3344 e3be 175d 8dbd 0e89 3abf f1b7 46be
00000080: 3d08 0ebf fc38 e4be 9741 12bf 090a 2a3e
00000090: 96ee 68bf 66ad 64bf 38ce a7be 40b6 243d
000000a0: e0cc b6bd b049 003e 9732 74bf 2cf5 babe
000000b0: a574 87bf 8ccd 51bd 9df5 37be e55f 353e
000000c0: 726f a2bd 1342 a6bd 1ff3 f73c 7abe 10be
000000d0: 8298 acbe 48f9 3dbf dfee 60bf c92a 16bd
000000e0: 0f45 b3bd 238d 1abf b64b afbe 02bb ba3e
000000f0: 2f8f 69bf 07f9 a0bf 890b 333c 28fb 0ebf
00000100: e6a4 043e 619c b13e ae7b 8b3f dbbb 583e
00000110: ee07 1d3f 1bfe b43e a5cc 633e 3446 7a3e
00000120: 56c3 ed3e e46a 8e3f f257 753e be0d 423f
00000130: b191 643f 0bda 39bd ed8d 203f 6ca1 c53e
00000140: fa1e 183f 6030 12be 6ada fb3e acca 193f
00000150: 6fdb ab3e 90c5 2bbe 25c3 db3e e1ad ed3e
00000160: 1a64 dc3e 0918 f63d feae 003f 8d76 f63d
00000170: f9cd c53e a530 af3e 0220 233f 4657 f83e
00000180: be9f 863d a3e6 e03e 4eb0 043f 0896 d43d
00000190: ab7a 0cbb 66ea bd3e 9f2c 0ebe 2cf3 003f
000001a0: 9d72 213f 9a39 413f 7dde 0c3f f415 413f
000001b0: d6ea 8c3e f033 623f e562 0e3f 34a5 3c3f
000001c0: 5e05 143f eca6 e13e ec7a e03e a4dc 1dbd
000001d0: 82b5 f43e 1050 883e 5c87 553f 61be 813e
000001e0: b767 b03e 9204 623e c46a 943e 29b1 863e
000001f0: e4eb 233f f560 803d 3a2f b33d 9afa 473f
00000200: b4d8 2cbe 9d84 afbc 3d64 27bd 72ad fbbd
00000210: a870 d13d 399d 2f3c 6936 a23e 3a75 b63c
00000220: 6716 2a3d 0a09 35bd 58c4 d23d 9008 54bd
00000230: b461 1a3e 2ae1 68bd be86 8cbd 04c7 88be
00000240: cbb0 8abd 1966 e93d 9dae 2ebe c1a3 14be
00000250: 18c7 c4bd cab7 473e 9e24 8bbd 5999 78be
00000260: 2195 a13e 83cd ba3d b0dd e73e a94a c0bd
00000270: 4e9c 79bd 9d1b e9be bc99 b23b e600 e03d
00000280: a376 8d3b eb48 8fbd d383 323c c4f0 293e
00000290: 4462 be3d eb9f 673b 72c2 283d ec4a 573d
000002a0: 2b64 64bd 1180 813e ca28 473d c6a8 133e
000002b0: c4cd 273e 79e1 1dbe caf3 47be 2a69 a4be
000002c0: 58fc 48bd cdbc 113c a06d 453e b356 303d
000002d0: 72bb 313e 21b7 353e 79d4 8f3d ccd7 39be
000002e0: 761c a43e ab7f ac3d 2129 e43d f816 ce3e
000002f0: b00f 57be e489 74bd e20d b93a 69bb 20bd

gru.bias_hh_l1 f4 [192]
-0.35223842 -0.51419646 -0.60396516 -0.4769003 -0.16467547 -0.22809923 0.067012735 -0.1304156
-1.1905679 -1.0459245 0.08192383 -0.4848624 0.04299286 -0.10006804 -0.012810404 0.027692484
-0.25213382 -0.7577398 -0.5510808 -0.44624588 -0.52596056 0.034866784 -0.29553166 0.13530287
-0.67394555 -0.4070554 0.48742786 -1.0544801 -0.31653062 -0.02330216 -0.6822561 -0.22775139
-0.62358505 -0.47346574 -0.5256209 0.18560208 -1.0892357 -0.85756695 -0.34057075 -0.08313402
-0.09033951 0.1283222 -0.9875744 -0.51382333 -1.0914935 -0.087166145 -0.17663844 0.24297768
-0.15397303 -0.071283974 0.098556586 -0.044252325 -0.28710645 -0.836951 -0.8120257 0.026666846
-0.06033093 -0.46935254 -0.2354169 0.36383075 -0.8844245 -1.4123524 -0.07116549 -0.66969657
0.213262 0.38346317 0.95959955 0.247712 0.6278306 0.3079222 0.0899609 0.3024353
0.4305296 1.0392792 0.22689313 0.8998934 0.83512497 0.18495908 0.6758589 0.3315324
0.45852312 -0.0910549 0.3921796 0.41101256 0.22488542 -0.08054635 0.40810785 0.47701478
0.25282905 0.10726539 0.4935892 0.18251088 0.29466292 0.255396 0.48357686 0.6138633
0.22812752 0.5490901 0.37850523 0.15132491 -0.12197098 0.4123057 0.06381336 0.37481835
0.48261175 0.7224555 0.54912657 0.7259443 0.2683326 0.8969557 0.4140774 0.6470134
0.55240566 0.2212642 0.4078263 -0.09347706 0.6475257 0.4597715 0.8117634 0.33829525
0.42254332 0.21498135 0.26322687 0.4642761 0.70327365 -0.035369568 0.06017045 0.8268056
-0.0037297108 -0.06455249 0.06651412 0.0015177805 0.15326762 0.12235891 0.43245193 -0.21339177
0.004822377 -0.013803383 0.65172493 -0.0042351778 0.01111117 -0.21056636 0.10606712 -0.1825026
0.09046994 -0.005496046 -0.09015872 0.0021677916 -0.0018699939 0.3104956 0.07592726 -0.29728937
0.12943114 0.06264603 0.49872527 0.013938919 0.03411654 -0.17040367 -0.013057184 0.10238869
-0.04651915 -0.0043911226 -0.041306086 0.564823 -0.011231283 -0.073743716 -0.2698555 0.14526968
-0.15999222 0.17257199 -0.08927888 0.095563024 0.009082683 -0.15247855 -0.13468735 -0.39163247
-0.08990115 0.18907848 0.40932184 -0.46925688 -0.17788166 -0.30053294 -0.00020006728 -0.19613262
0.12925692 0.024562806 0.015804393 0.4381611 0.06832168 -0.00019537595 0.5350605 0.031798303
00000000: 9858 b4be 61a2 03bf 769d 1abf 472c f4be
00000010: b0a0 28be d892 69be f93d 893d ab8b 05be
00000020: 8764 98bf dbe0 85bf aec7 a73d e23f f8be
00000030: 4819 303d 79f0 ccbd bbe2 51bc 59db e23c
00000040: af17 81be 3cfb 41bf a213 0dbf 577a e4be
00000050: 5aa5 06bf 79d0 0e3d ed4f 97be d68c 0a3e
00000060: b287 2cbf 9169 d0be 2590 f93e 34f9 86bf
00000070: 4d10 a2be 2ce4 bebc 56a8 2ebf a937 69be
00000080: 45a3 1fbf 1a6a f2be 178f 06bf 790e 3e3e
00000090: 136c 8bbf 8289 5bbf 4a5f aebe 2b42 aabd
000000a0: ec03 b9bd e566 033e add1 7cbf ed89 03bf
000000b0: 0fb6 8bbf 2a84 b2bd b5e0 34be 24cf 783e
000000c0: 1bab 1dbe 55fd 91bd 09d8 c93d ed41 35bd
000000d0: 9eff 92be 6c42 56bf ebe0 4fbf 6e74 da3c
000000e0: 911d 77bd fa4e f0be 2111 71be 0648 ba3e
000000f0: a569 62bf f7c7 b4bf 36bf 91bd 3c71 2bbf
00000100: 5b61 5a3e 4955 c43e 51a8 753f 37a8 7d3e
00000110: 82b9 203f fba7 9d3e 6c3d b83d cdd8 9a3e
00000120: 606e dc3e 1a07 853f ac56 683e 6a5f 663f
00000130: c0ca 553f ea65 3d3e 1705 2d3f 9dbe a93e
00000140: 8bc3 ea3e fe7a babd c4cb c83e 3d70 d23e
00000150: 5d48 663e 7cf5 a4bd 83f3 d03e 483b f43e
00000160: cf72 813e f5ad db3d b9b7 fc3e 22e4 3a3e
00000170: 0fde 963e 44c3 823e 6397 f73e 2526 1d3f
00000180: 439a 693e 2b91 0c3f 70cb c13e ebf4 1a3e
00000190: eccb f9bd bc19 d33e 94b0 823d 31e8 bf3e
000001a0: e318 f73e d8f2 383f 8f93 0c3f 7cd7 393f
000001b0: e462 893e e49e 653f f401 d43e aca2 253f
000001c0: 756a 0d3f 1593 623e 9cce d03e e770 bfbd
000001d0: 3fc4 253f 2c67 eb3e bacf 4f3f 0935 ad3e
000001e0: 9957 d83e 1224 5c3e acc5 863e 99b5 ed3e
000001f0: be09 343f aedf 10bd 4a75 763d 88a9 533f
00000200: 2a6e 74bb 1934 84bd 8e38 883d 43f0 c63a
00000210: 30f2 1c3e 4f97 fa3d 576a dd3e 5f83 5abe
00000220: 0805 9e3b 9627 62bc 72d7 263f 3fc7 8abb
00000230: a00b 363c b59e 57be b839 d93d f6e1 3abe
00000240: 4e48 b93d 2d18 b4bb 23a5 b8bd 8211 0e3b
00000250: 951a f5ba 47f9 9e3e c07f 9b3d 5036 98be
00000260: 9989 043e 904c 803d eb58 ff3e 1060 643c
00000270: c9bd 0b3d 4d7e 2ebe cded 55bc 29b1 d13d
00000280: dd8a 3ebd 68e3 8fbb 9230 29bd 3d98 103f
00000290: 6a03 38bc f206 97bd 802a 8abe 93c1 143e
000002a0: 00d5 23be b6b6 303e d8d7 b6bd 8cb6 c33d
000002b0: 89cf 143c 5623 1cbe 7beb 09be 0d84 c8be
000002c0: 181e b8bd ca9d 413e a292 d13e 7042 f0be
000002d0: 9c26 36be 74df 99be 27c9 51b9 fdd6 48be
000002e0: ed5b 043e f037 c93c 3778 813c a756 e03e
000002f0: 3dec 8b3d d5dd 4cb9 baf9 083f f03e 023d

attention.W1.weight f4 [32, 64]
-0.08381805 0.044899628 0.07706632 -0.104966015 -0.07263647 0.124887004 -0.0781569 0.07566509
0.08670795 -0.030572072 0.060741767 -0.01045616 0.023525313 -0.078181714 -0.021177918 -0.075353116
0.1089046 -0.060413986 -0.032039985 -0.1228316 -0.0039428174 0.0035154074 -0.12136522 0.06547831
0.09099102 0.07222791 -0.10130668 0.085228965 -0.0019373447 -0.008999154 0.11892584 0.055056453
-0.111758694 -0.07239647 -0.06766617 0.067910805 -7.9885125e-05 0.107613355 0.029558927 0.08145243
0.052480474 -0.015216798 -0.021054074 -0.07264747 -0.11683664 0.019626305 -0.023543596 0.051973745
0.070948765 0.09722604 -0.07203153 -0.10307926 0.11101732 -0.0074138194 -0.017961279 -0.028856948
0.030281708 0.090491325 -0.114391565 -0.06554215 -0.09871858 0.077230945 -0.112179026 0.03225158
-0.049075127 -0.004510075 -0.044953376 0.015124887 0.094072536 0.07083127 0.06566067 0.018886968
0.016444162 0.038124144 -0.059178874 -0.111077294 0.010781452 -0.050040558 -0.03905104 -0.08447018
0.033350036 0.0354954 0.004123792 0.104086176 0.0794646 0.09083371 -0.07940647 -0.030934617
0.017310932 0.0008869916 -0.028745055 0.11259769 0.0774868 -0.034590647 0.060355574 0.12068215
0.11876145 -0.11678463 -0.02792576 -0.09160349 -0.07624671 0.015211254 0.004485786 -0.013148859
0.039969176 -0.054193377 0.08898057 -0.0052861124 0.11814301 0.077959135 -0.09639026 -0.04958187
0.124840915 -0.080313876 -0.06962837 0.06752454 -0.004952103 -0.052538693 0.111619845 0.00014904141
0.09979999 0.11595045 -0.032270655 0.11789499 -0.008364782 0.018764213 0.10151276 0.051534623
0.120431975 0.05508402 -0.008629873 0.040783465 -0.092277616 -0.0996563 0.096424386 -0.06240514
-0.057483822 -0.026320219 0.11395654 0.052776754 -0.09487568 -0.115042865 0.043015137 -0.016361997
-0.092011556 -0.017230943 -0.04475066 -0.04995498 -0.1013518 0.0017607212 -0.06495164 0.021778509
-0.00609605 0.11126746 -0.025752217 0.0399462 0.08601059 -0.04788138 0.11182545 -0.010254562
0.11350231 -0.093819275 -0.041949928 0.044911057 -0.08906485 0.018829584 0.027222767 -0.042250976
-0.08114377 0.08419335 0.11716892 0.10306217 -0.11872764 -0.09725875 -0.118588045 -0.030906036
-0.090841085 0.054450452 0.07668622 0.08662835 -0.10609554 -0.02901718 -0.024650604 0.102378294
-0.11693637 -0.08280441 0.10616943 0.022573262 -0.10606593 0.006402418 0.029638574 0.0039241463
0.10820234 0.090233 0.033697158 0.031632528 0.0975838 0.056224152 -0.11229244 0.04145898
0.069167286 0.023007706 -0.04246287 0.10142216 -0.09112202 -0.022642061 -0.03574623 -0.11071634
0.09704319 -0.049895436 -0.04104373 -0.09817593 0.09047398 0.040891945 -0.03405431 0.026415393
-0.044731587 0.091384694 -0.10863043 -0.06893812 -0.047115013 -0.01494053 0.052181095 -0.10190746
-0.03997697 0.04317057 -0.031334803 -0.011889279 0.11514038 0.12225959 -0.066671655 -0.060622945
-0.07731034 0.03132315 0.100938216 0.0012895018 0.091641515 0.04051675 0.116600424 -0.08022788
-0.11381525 0.014073178 0.04966013 -0.06772953 0.0028840005 0.029322222 -0.022789508 -0.08911489
0.124736905 0.055457175 0.04047112 -0.06598082 -0.10806888 0.10377921 0.0156679 0.12369692
00000000: cca8 abbd ace8 373d f2d4 9d3d 6cf8 d6bd
00000010: 6ec2 94bd c2c4 ff3d ba10 a0bd 4cf6 9a3d
00000020: f093 b13d 4872 fabc 5ccc 783d 5050 2bbc
00000030: 28b8 c03c bc1d a0bd 507d adbc bc52 9abd
00000040: 6009 df3d a874 77bd 5c3c 03bd 228f fbbd
00000050: c032 81bb c062 663b 548e f8bd 7e19 863d
00000060: 8059 ba3d 3aec 933d e079 cfbd 868c ae3d
00000070: 80ee fdba 3071 13bc 648f f33d e082 613d
00000080: bee1 e4bd 9a44 94bd 9094 8abd d214 8b3d
00000090: 0088 a7b8 6464 dc3d 9025 f23c 88d0 a63d
000000a0: c4f5 563d e04f 79bc 9879 acbc 32c8 94bd
000000b0: 0c48 efbd 58c7 a03c 80de c0bc 6ce2 543d
000000c0: 964d 913d 721e c73d 4485 93bd 381b d3bd
000000d0: 0c5d e33d a0ef f2bb 8823 93bc 6865 ecbc
000000e0: 5811 f83c 8453 b93d 2046 eabd f63a 86bd
000000f0: f82c cabd 422b 9e3d 1ebe e5bd 3c1a 043d
00000100: 0003 49bd 40c9 93bb 0821 38bd 60ce 773c
00000110: 1aa9 c03d fc0f 913d 1a79 863d d8b8 9a3c
00000120: e8b5 863c 1028 1c3d 8c65 72bd 7e7c e3bd
00000130: b0a4 303c 54f7 4cbd fcf3 1fbd b4fe acbd
00000140: 0c9a 083d a063 113d e020 873b 222b d53d
00000150: 56be a23d 0607 ba3d dc9f a2bd 986a fdbc
00000160: a8cf 8d3c 0085 683a c07a ebbc 9e99 e63d
00000170: 66b1 9e3d ecae 0dbd 6837 773d 3428 f73d
00000180: 3439 f33d c82c efbd 90c4 e4bc 9c9a bbbd
00000190: 3c27 9cbd a038 793c 80fd 923b 506e 57bc
000001a0: b8b6 233d e0f9 5dbd 723b b63d 2037 adbb
000001b0: f6f4 f13d 0aa9 9f3d 4268 c5bd 5c16 4bbd
000001c0: 98ac ff3d 9a7b a4bd 5299 8ebd 4e4a 8a3d
000001d0: 4045 a2bb d032 57bd f298 e43d 0048 1c39
000001e0: f063 cc3d 6e77 ed3d 3c2e 04bd ee72 f13d
000001f0: 700c 09bc 68b7 993c ece5 cf3d f815 533d
00000200: 0aa5 f63d c89f 613d 5064 0dbc 900c 273d
00000210: 0cfc bcbd 9a18 ccbd 267a c53d 889c 7fbd
00000220: 2874 6bbd 809d d7bc 0c62 e93d 702c 583d
00000230: 2e4e c2bd 989b ebbd a430 303d 9809 86bc
00000240: 8e70 bcbd e827 8dbc 784c 37bd 989d 4cbd
00000250: 8891 cfbd 00c8 e63a 5e05 85bd d868 b23c
00000260: 60c1 c7bb 32e0 e33d 50f6 d2bc a09e 233d
00000270: 5226 b03d 441f 44bd be04 e53d c002 28bc
00000280: e673 e83d 5224 c0bd b0d3 2bbd a8f4 373d
00000290: a267 b6bd 8040 9a3c 4802 df3c 5c0f 2dbd
000002a0: b42e a6bd 906d ac3d 42f6 ef3d 4212 d33d
000002b0: 7a27 f3bd 982f c7bd 4ade f2bd a82e fdbc
000002c0: e40a babd 7007 5f3d aa0d 9d3d 346a b13d
000002d0: 9e48 d9bd 70b5 edbc 10f0 c9bc b6ab d13d
000002e0: 567c efbd 5c95 a9bd 5c6f d93d 90eb b83c
000002f0: 1839 d9bd 60cb d13b 98cc f23c 2096 803b
00000300: 3099 dd3d 14cc b83d 0806 0a3d 1c91 013d
00000310: 04da c73d 4c4b 663d 94f9 e5bd e4d0 293d
00000320: 94a7 8d3d a87a bc3c 8ced 2dbd 6cb6 cf3d
00000330: 2e9e babd d87b b9bc a46a 12bd 40bf e2bd
00000340: 94be c63d 285f 4cbd 781d 28bd 7610 c9bd
00000350: 6c4a b93d 507e 273d 887c 0bbd 1865 d83c
00000360: 7838 37bd e627 bb3d a279 debd 6e2f 8dbd
00000370: acfb 40bd 20c9 74bc d8bb 553d dcb4 d0bd
00000380: e4be 23bd a0d3 303d ec58 00bd 40cb 42bc
00000390: b8ce eb3d 3c63 fa3d 268b 88bd c44f 78bd
000003a0: e254 9ebd b44c 003d b2b8 ce3d 8004 a93a
000003b0: 8cae bb3d e4f4 253d 34cc ee3d 844e a4bd
000003c0: f817 e9bd 3093 663c 6c68 4b3d c8b5 8abd
000003d0: 8001 3d3b 2835 f03c 10b1 babc de81 b6bd
000003e0: 1076 ff3d 1027 633d 0cc5 253d f420 87bd
000003f0: 3853 ddbd 328a d43d f859 803c d054 fd3d
